project/state_agent.pt (torch, 11940 bytes, 4 tensors)

weight f4 [32, 17]
0	0x3ed66b8b	0.41878924
1	0xbe05f871	-0.13083054
2	0x3ef2f612	0.47453362
3	0xbe5edb5c	-0.21763366
4	0x3e5ff286	0.21869859
5	0x3d539b0c	0.051661536
6	0x3e6a8d06	0.22905359
7	0xbe1fe105	-0.15613182
8	0x3e821ee6	0.254142
9	0xbe85984e	-0.26092762
10	0xbe222054	-0.15832645
11	0xbc6945dc	-0.014237847
12	0x3df4a1bc	0.11944911
13	0xc007bab0	-2.1207695
14	0xbee17c57	-0.44040176
15	0xbf1f6fc9	-0.62279946
16	0xbf0cedbf	-0.5505027
17	0xbebb7f0d	-0.3662037
18	0x3d07da35	0.033167083
19	0xbdee6ade	-0.11641477
20	0x3eb9a627	0.36259577
21	0xbeb143c8	-0.34622025
22	0x3dd677a4	0.104720384
23	0x3d354150	0.04425174
24	0x3a90c82b	0.0011045983
25	0x3d97e369	0.07416422
26	0x3d5b91fd	0.053606022
27	0x3c99d94e	0.018780377
28	0xbdadb45c	-0.084816664
29	0xbc40b5ef	-0.011762126
30	0xc00f056f	-2.2347066
31	0xbf1cf48a	-0.61310637
32	0xbf206d42	-0.62666714
33	0xbe38d539	-0.18050088
34	0xbe74aee5	-0.23894842
35	0x3e61e44a	0.22059742
36	0x3d8db021	0.069183595
37	0xbeeaa9bb	-0.4583262
38	0x3e43d67c	0.19124788
39	0xbe2eb4fa	-0.17061225
40	0xbc952804	-0.018207557
41	0xbed5fd89	-0.41794994
42	0x3d96b44e	0.07358609
43	0xbf00fd7a	-0.50386775
44	0x3e7dab34	0.2477234
45	0x3e5392df	0.20661496
46	0xbe533b56	-0.20628104
47	0xc04fe017	-3.2480524
48	0xbf5ff281	-0.87479407
49	0xbeeb9641	-0.46013072
50	0xbf410d90	-0.7541132
51	0xbdf2aa2a	-0.118488625
52	0xbd142951	-0.036172215
53	0x3d56bb24	0.052424565
54	0xbe016963	-0.12637858
55	0xbc2e958e	-0.010655774
56	0x3d0b4d03	0.03400899
57	0x3de78fd5	0.11306731
58	0xbddded50	-0.108362794
59	0x3e47e344	0.19520289
60	0x3e6bf4ec	0.23042649
61	0x3b1f3902	0.0024295454
62	0xbe6adeb6	-0.2293652
63	0xbdce1554	-0.10062662
64	0x3e2e9ef2	0.1705282
65	0x3d94eb12	0.072713986
66	0xbcf2b28b	-0.029626152
67	0x3e3afd79	0.18260755
68	0x3dddd5a2	0.10831763
69	0xbe0a7977	-0.13522898
70	0xbe779f71	-0.24181916
71	0xbdb52b66	-0.08846168
72	0xbda348bc	-0.07972857
73	0xbdb7fbc2	-0.08983566
74	0x3dceb7b7	0.100936346
75	0x3d8d37ad	0.06895385
76	0xbd3a0ebd	-0.04542421
77	0xbe43e8a5	-0.19131716
78	0xbda3c61c	-0.07996771
79	0xbea92bee	-0.33041328
80	0x3df30dd7	0.11867874
81	0xbe196bc5	-0.14982517
82	0x3d69a9bb	0.057046633
83	0xbd98d310	-0.07462132
84	0x3e0b00bb	0.13574497
85	0xbec49df9	-0.38401774
86	0xbd7125f3	-0.05887408
87	0xbed73ca5	-0.42038456
88	0x3e1e7322	0.15473607
89	0xbe341b0a	-0.1758844
90	0xbe49b4e2	-0.19697908
91	0x3dc3cf09	0.09560973
92	0xbe859916	-0.26093358
93	0xbcc6fefd	-0.02429151
94	0x3c41dc2e	0.01183228
95	0x3e377e57	0.17919289
96	0x3c68e5ed	0.014214975
97	0xbe0b5dfc	-0.13610071
98	0x40512c84	3.268342
99	0x3f2106a5	0.62900764
100	0x3f8db242	1.1070025
101	0x3e1d1b75	0.15342505
102	0x3d9be024	0.07611111
103	0x3e66df6f	0.2254617
104	0x3ce2409a	0.027618695
105	0x3e503faa	0.20336786
106	0x3e51499a	0.20438233
107	0x3eb84f04	0.35997784
108	0xb98679a8	-0.00025649113
109	0x3e0100d1	0.12597968
110	0x3dedfefe	0.116209015
111	0xbe15b1c2	-0.1461859
112	0xbe17e725	-0.14834268
113	0x3e1a4b86	0.15067872
114	0xbd000b2d	-0.031260658
115	0x4000f2a1	2.014809
116	0x3cabb281	0.02095914
117	0x3d823639	0.063579984
118	0x3dab10a0	0.0835278
119	0xbec19ecd	-0.37816468
120	0x3e3da20f	0.18518852
121	0xbc886a45	-0.016652236
122	0xbe3ad1f5	-0.18244155
123	0xbe460dcd	-0.19341202
124	0xbd1e4bce	-0.03864651
125	0xbd3819ca	-0.04494647
126	0x3de6c529	0.11268074
127	0x3ec1f350	0.37880945
128	0x3db78686	0.08961205
129	0xbe396682	-0.1810551
130	0x3da4a0e5	0.08038501
131	0x3e56b5a2	0.20967725
132	0xc012bc34	-2.292737
133	0xbf2b7ec1	-0.66990286
134	0xbee55b42	-0.44796187
135	0xbcdc9b7f	-0.026929615
136	0x3f02c32b	0.5107905
137	0xbe82f80e	-0.25579876
138	0x3f2b4ef5	0.66917354
139	0x3e5df191	0.21674182
140	0x3e800178	0.2500112
141	0xbdb2344d	-0.08701382
142	0xbdaad150	-0.083407044
143	0x3dc4ac2f	0.09603154
144	0x3debf645	0.115215816
145	0xbe27ccf9	-0.16386785
146	0x3d994f12	0.074857846
147	0x3c21772c	0.009855073
148	0x3cefd3d8	0.02927582
149	0xbfbe7d5f	-1.488201
150	0xbf0c7b24	-0.548754
151	0xbf234ce6	-0.6378921
152	0xbecc19f8	-0.39863563
153	0x3c9ab271	0.018883916
154	0x3d86ec7f	0.06588077
155	0xbd4ef7ce	-0.050529294
156	0x3d09bac8	0.033625394
157	0xbce6cc7e	-0.028173681
158	0x3d85d147	0.06534057
159	0xbd99aeee	-0.07504068
160	0x3d55e77b	0.05222271
161	0x3ecc1a30	0.3986373
162	0x3ec2d095	0.3804976
163	0x3d09c38d	0.033633757
164	0xbe523824	-0.20529228
165	0xbec15179	-0.3775747
166	0x3f5db211	0.8659983
167	0x3e34466b	0.17604987
168	0x3e177743	0.14791588
169	0x3dce57ca	0.10075338
170	0xbee25d42	-0.44211775
171	0x3e8d5afb	0.27608475
172	0xbf043ff4	-0.51660085
173	0x3dee2e41	0.11629916
174	0xbeae23be	-0.34011644
175	0x3e9fe82b	0.31231818
176	0x3e13aed9	0.14422168
177	0x3ce6ea88	0.028188005
178	0x3ee32c91	0.4436994
179	0xbe39a5d2	-0.18129662
180	0xbc788b72	-0.015169965
181	0xbcf30398	-0.0296648
182	0xbe0faaf8	-0.14030063
183	0xc016c137	-2.355543
184	0xbd3ee872	-0.046608396
185	0xbde4d888	-0.111741126
186	0xbf083f14	-0.5322125
187	0xbdad4f1b	-0.08462354
188	0x3ea8cc06	0.32968158
189	0x3eb0c584	0.34525692
190	0xbe6ed282	-0.2332249
191	0x3d697e76	0.05700537
192	0x3de6f320	0.11276841
193	0xbd0b8709	-0.034064326
194	0x3e389c7d	0.18028446
195	0x3d82b58a	0.06382282
196	0xbe9d4749	-0.3071845
197	0x3e3cd361	0.1844001
198	0xbd37e8c4	-0.044899717
199	0x3bb66bc6	0.005567047
200	0xbf03df09	-0.515122
201	0x3c6994ef	0.0142567
202	0xbf416f6c	-0.7556064
203	0xbe23ab45	-0.15983303
204	0x3c70e244	0.014702383
205	0x3e5449ed	0.20731325
206	0xbd0502e5	-0.032473464
207	0xbe2cb1e7	-0.1686474
208	0x3e0fa266	0.14026794
209	0xbd557d8b	-0.05212168
210	0xbd87c329	-0.06629021
211	0xbeb0cb05	-0.34529892
212	0x3e4b7ec6	0.19872579
213	0xbe3698e2	-0.17831758
214	0xbcd7d115	-0.026344815
215	0x3e523d6b	0.20531242
216	0x3c57a3c4	0.013161603
217	0xc055a123	-3.33796
218	0xbf2c904d	-0.67407686
219	0xbeea2e0a	-0.4573825
220	0xbf315649	-0.69272286
221	0x3d612b20	0.054972768
222	0xbdab156b	-0.083536945
223	0x3eabe0f4	0.33570063
224	0x3e80a369	0.25124672
225	0x3e03c8d0	0.12869573
226	0x3eda0960	0.42585278
227	0xbd5b9f27	-0.053618576
228	0x3ef2528a	0.47328597
229	0x3e4c7bcb	0.19969098
230	0x3e025497	0.12727581
231	0x3d0263cb	0.03183345
232	0x3de31025	0.11087064
233	0x3e484fb5	0.19561656
234	0x400c62bd	2.1935265
235	0xbd528235	-0.051393706
236	0x3ce75dd5	0.028242985
237	0x3d84a4e9	0.064767666
238	0xbd80f3c4	-0.062964946
239	0xbe0e1619	-0.13875617
240	0x3d0237bb	0.03179143
241	0x3ddf4387	0.10901552
242	0xbe0986bb	-0.13430302
243	0x3e95d627	0.29264948
244	0xbde80a1e	-0.11330055
245	0xbe171e57	-0.14757667
246	0xbeb78510	-0.35843706
247	0xbdd1bb61	-0.10240818
248	0x3e199a7f	0.15000342
249	0x3d3dcac9	0.04633597
250	0x3da85095	0.08218495
251	0x402da150	2.7129707
252	0x3ecdefbb	0.40221962
253	0x3f249f51	0.643056
254	0x3f33a1fe	0.70169055
255	0x3ce3cd80	0.027807951

bias f4 [32]
0	0x3d77c912	0.06049449
1	0x3e727da5	0.23680742
2	0xbe79812c	-0.24365681
3	0xbd8aa6f0	-0.06770122
4	0xbe84ffd8	-0.25976443
5	0x3da26c7c	0.07930848
6	0x3e0c29da	0.1368784
7	0xbd69bd30	-0.05706519
8	0xbdd284e0	-0.1027925
9	0xbec13130	-0.3773284
10	0xbdb4731b	-0.08811017
11	0xbe5ed625	-0.21761377
12	0x3e2a9a19	0.16660346
13	0xbe7b8efb	-0.24566261
14	0xbe6d3aab	-0.23166911
15	0xbe6bfb0f	-0.2304499
16	0x3e11605f	0.14196919
17	0x3dc8a67e	0.09797381
18	0x3f066c89	0.5250936
19	0xbe4474dd	-0.19185205
20	0x3d297191	0.04136807
21	0xbcf1e0a4	-0.029526062
22	0xbe7b662a	-0.24550691
23	0x3bcd3196	0.0062620146
24	0x3e9ae597	0.30253288
25	0xbe53f6b5	-0.2069958
26	0x3c12cabd	0.008959469
27	0x3e27bc11	0.16380335
28	0x3dba9396	0.09110181
29	0x3d1c83c8	0.038211614
30	0xbcb989e4	-0.02264876
31	0xbd26582c	-0.04061143

weight f4 [3, 32]
0	0xbe077126	-0.13226756
1	0xbe52ee7b	-0.20598786
2	0x3dc7045a	0.09717627
3	0x3c5fa639	0.01365047
4	0x3cd07aa2	0.0254491
5	0xbec20cbf	-0.3790035
6	0xbca8587b	-0.020550003
7	0xbd9f3859	-0.07774419
8	0xbba32cc4	-0.0049797017
9	0xbe020bff	-0.12699889
10	0xbed0455b	-0.40677914
11	0x3e263c5a	0.1623396
12	0x3c4362a5	0.011925374
13	0x3e5c7240	0.21527958
14	0xbc985abe	-0.018597957
15	0xbeb5f2e2	-0.35536867
16	0x3defc0a5	0.11706666
17	0x3efe1d8c	0.49631917
18	0xbe378cf1	-0.17924859
19	0xbf1076d8	-0.5643134
20	0x3c93a275	0.018021801
21	0x3d9dd030	0.07705724
22	0xbe5982ae	-0.21241257
23	0xbed39dca	-0.4133132
24	0xbf0c33ce	-0.5476655
25	0xbe6f66ee	-0.23379108
26	0x3d56bec7	0.052428033
27	0xbe125793	-0.1429122
28	0xbe0de07c	-0.13855165
29	0x3e5c4cd4	0.21513683
30	0xbd05784a	-0.03258542
31	0xbec6c1dc	-0.38819778
32	0xbb1dbdd4	-0.0024069445
33	0xbdb7f589	-0.08982379
34	0xbe6260f7	-0.22107302
35	0x3d53ac32	0.05167789
36	0x3da28dab	0.07937177
37	0x3e1218e6	0.1426731
38	0x3e8578b1	0.26068643
39	0xbe742072	-0.23840502
40	0x3d4108de	0.047127597
41	0x3d35de1e	0.04440128
42	0xbdc0dea1	-0.09417463
43	0x3d8c0466	0.068367764
44	0xbe61a667	-0.22036134
45	0x3e7d9bc1	0.24766447
46	0x3e18ac3f	0.14909457
47	0x3df04415	0.117317356
48	0x3e102b59	0.14079036
49	0x3e261734	0.16219789
50	0x3e9377fa	0.28802472
51	0x3ca275b4	0.019831516
52	0xbdba2f81	-0.09091092
53	0xbe2d7034	-0.16937333
54	0x3e17affd	0.14813228
55	0xbcef4c1a	-0.029211093
56	0x3e7eb4b5	0.24873622
57	0x3e36fb3f	0.1786928
58	0xbdbe4638	-0.09290737
59	0x3e732427	0.2374426
60	0xbc198689	-0.009370455
61	0xbcb3c4ae	-0.02194437
62	0x3d26e636	0.04074689
63	0xb90ec559	-0.00013615693
64	0x3e00db03	0.12583546
65	0xbdfb8054	-0.12280336
66	0x3e17ae65	0.1481262
67	0x3d694b78	0.05695674
68	0xbd805d92	-0.06267847
69	0xbc86c0e0	-0.016449392
70	0x3d390f78	0.045180768
71	0xbe0a92fe	-0.13532636
72	0x3e0e1225	0.13874109
73	0x3e2cef17	0.1688808
74	0x3d2c6260	0.042086005
75	0xbd44c03c	-0.04803489
76	0xbe31c842	-0.17361549
77	0xbe15a676	-0.14614281
78	0xbdff0b96	-0.12453382
79	0x3dc5ed9e	0.096644625
80	0xbd4e9710	-0.050437033
81	0xbe0c67d6	-0.13711485
82	0x3dd3c9be	0.10341214
83	0x3a833500	0.0010010302
84	0xbdc9ec39	-0.09859509
85	0x3d54b52c	0.05193059
86	0xbe2224b8	-0.1583432
87	0x3c129a20	0.008947879
88	0xbc48a740	-0.012246907
89	0x3dbe2f12	0.09286322
90	0x3e2b61f7	0.1673659
91	0xbd474134	-0.048646167
92	0x3d1249a8	0.035714775
93	0xbc86c1f8	-0.016449913
94	0x3e0bbc79	0.13646115
95	0x3e157c1d	0.14598127

bias f4 [3]
0	0x3d9030c3	0.070405506
1	0xbe51fa49	-0.20505632
2	0xbd0f342c	-0.034961864
